loan-model-alpha-modelcar/data/1/model.onnx (onnx, 40390 bytes, 9 tensors)

sequential_10/dense_43/MatMul/ReadVariableOp:0 f4 [64, 1]
000000 99 ec 48 be 3e da 87 3e 7f 42 40 bc 8e 3a 26 bd
       -0.19621505 0.26533693 -0.011734604 -0.040583186
000010 48 e1 57 3e 6e b6 ce be 87 29 63 3e 00 f2 8a bd
       0.21082032 -0.40373558 0.2218381 -0.06784439
000020 c6 3f ae 3e dd cc 97 be c6 90 9b be ab 71 00 be
       0.3403303 -0.29648486 -0.3038389 -0.12543361
000030 13 5c 67 be 27 d3 07 be d1 a5 97 3e 76 d4 90 3e
       -0.22593717 -0.13264142 0.29618695 0.28287095
000040 f0 27 8a be f4 b0 25 bd b1 f0 9b be 5b e5 7f bd
       -0.26983595 -0.04045196 -0.3045707 -0.06247459
000050 fa 1b a3 be 0a 28 23 3e 15 d5 bf 3e 5d 74 f1 3d
       -0.31857282 0.15933242 0.37467256 0.11789773
000060 ad 5f af be d7 86 67 3e 50 47 9a be 85 3e 3c 3d
       -0.34252682 0.22610031 -0.30132532 0.04595806
000070 38 32 af 3d 79 52 d6 3e 1c e2 ec 3d 2d 18 97 be
       0.085545 0.41859797 0.115665644 -0.29510632
000080 2c 13 88 be 1e e7 63 be 46 89 13 3c 44 94 d9 3d
       -0.26577127 -0.22256133 0.0090048965 0.106239825
000090 81 7e f3 be 57 39 3a 3e 8b e2 96 be 3d 47 41 3e
       -0.47557452 0.18185936 -0.29469714 0.18874831
0000a0 fa 4e 52 be ff be 7f be 27 da bb 3e f9 8d f2 3e
       -0.2053794 -0.24975203 0.36689875 0.47373942
0000b0 4f e6 6a 3e 87 ea 72 be d7 8c 33 3e 5d f3 67 be
       0.22939418 -0.23722278 0.17534195 -0.2265143
0000c0 78 e6 b9 bd 04 cf de bd 48 34 8f be ab 4a 97 be
       -0.090771616 -0.10879329 -0.27969575 -0.29549155
0000d0 8e 1e 23 be 79 2b 92 3e 2b 7d 2e be 04 fc c4 3e
       -0.15929624 0.28548792 -0.17039935 0.38473523
0000e0 e1 97 b6 3e 6e cf 8e 3d c7 94 83 3e 94 a9 df 3e
       0.3566275 0.06973158 0.25699446 0.43684065
0000f0 9a 7f 0d be c3 93 e0 3e 47 fc 08 3e 69 ee eb bc
       -0.13818207 0.43862733 0.13377486 -0.028800206

sequential_10/dense_42/MatMul/ReadVariableOp:0 f4 [64, 64]
000000 48 92 e3 3d bd ba 3d be 54 82 1b 3e 14 03 4c 3e
       0.11111885 -0.18528266 0.15186435 0.19923049
000010 ee a5 c0 bb f5 88 7b be d2 bd 09 3e ff c5 6b be
       -0.0058791554 -0.24563964 0.13451317 -0.23024748
000020 62 77 b8 bd 69 58 7d 3d 5c 01 9f bd 3a 5d f0 be
       -0.090071455 0.061851893 -0.07763931 -0.46946126
000030 d6 6c 53 3e ac ee 2c 3e c5 95 e3 bc b9 f2 36 be
       0.20646986 0.16887921 -0.027781377 -0.17866029
000040 86 ad 56 3e fe 6b a9 3d 45 c9 42 3b c5 5d 4b 3e
       0.20964631 0.08272551 0.0029722017 0.19859989
000050 bc 83 b3 3d b4 e0 b9 bd a9 91 36 bc 0a 35 18 3e
       0.08765361 -0.09076062 -0.0111431265 0.14863983
000060 ef 3e 94 3d 44 5f 19 3e f3 18 c9 3c d0 0a 97 3d
       0.07238566 0.14977747 0.02454803 0.07375109
000070 bc 11 cb 3b 33 92 25 3e 41 9d 67 be b5 58 1e 3d
       0.0061971825 0.16169052 -0.22618581 0.038658816
000080 6e 21 7c 3d 31 db b3 3d f3 0a a2 bd f1 1d ca bc
       0.06155532 0.08782042 -0.07912245 -0.02467248
000090 40 31 a3 3d b4 c4 e5 3d 7a 67 fa ba bf 13 48 3d
       0.07968378 0.11219159 -0.0019104325 0.048846956
0000a0 f3 4c 47 bd 9c 5e 69 be da 82 02 be 93 af e4 3d
       -0.04865737 -0.22789997 -0.12745228 0.111663006
0000b0 4a 7e 04 bd 00 ad 08 be 51 e9 e9 3d f9 59 c6 bd
       -0.032347 -0.13347244 0.11421455 -0.0968513
0000c0 47 20 03 be d6 5c 1c be 2a ed e3 3d a5 44 3f be
       -0.12805282 -0.15269789 0.1112922 -0.1867853
0000d0 62 63 cc 3d b3 fc 4f 3d 31 94 c5 3d 61 85 70 3d
       0.09979893 0.050778102 0.09647406 0.05872095
0000e0 56 1b d6 bc 69 83 ba 3d 9a fe 20 3e a3 1d 55 bd
       -0.026136082 0.09107096 0.15722123 -0.052030217
0000f0 78 7c 8b be ac 31 4e be 68 ef 24 3e 99 36 56 3d
       -0.272434 -0.20136136 0.16106951 0.052298162
000100 50 b5 a1 3d b6 64 87 bb dc a5 7f bb b9 87 23 3e
       0.07895911 -0.0041318787 -0.0039008772 0.15969743
000110 c4 4a 4d 3e 24 b6 7d 3c 30 b5 4e 3e c5 57 36 3e
       0.20048052 0.01548532 0.20186305 0.17806919
000120 7d 07 35 bd 6b cf 53 bd 33 b8 20 3d e6 ca 34 be
       -0.044196595 -0.05171148 0.039238166 -0.17655525
000130 d8 b6 9e 3c 8f ad 1a 3e 94 7c 8a 3e 11 c0 4f 3c
       0.019374296 0.1510527 0.2704817 0.01268007
000140 26 26 1a 3e e1 66 03 be f0 af 7b 3d 7e 6a 2c 3e
       0.15053615 -0.12832214 0.061447084 0.16837499
000150 a2 46 5e 3a 16 93 06 3e 58 02 55 3d a6 3b 61 bd
       0.0008479153 0.13142046 0.05200419 -0.054988526
000160 93 3e 9b bd 8f 42 ee 3d 39 da 56 3e 71 50 ed 3c
       -0.075802945 0.11633789 0.20981683 0.028969022
000170 e5 77 47 3e 51 eb fe 3c 6d 69 07 3d c2 1b 92 3d
       0.1947933 0.031118067 0.033059526 0.07134201
000180 b6 87 41 3e e1 f6 5d bd d5 1c 5b 3c 54 67 0a be
       0.18899426 -0.05419052 0.013373573 -0.13515979
000190 28 7f 96 3e f1 2b 0f bd f1 20 88 3e 4f b7 1a 3d
       0.29393888 -0.034954015 0.26587632 0.037772473
0001a0 1e 10 04 3e 26 a2 c9 bd 71 fd 47 3e 5b a1 be bd
       0.12896773 -0.098453805 0.19530274 -0.0930812
0001b0 16 42 4d 3c bb 9c 33 3d 33 58 ac 3d 35 1a ee bd
       0.012527963 0.04385064 0.0841526 -0.11626092
0001c0 b4 f4 65 be bb c2 2e 3d c1 f0 34 be 3d 47 f5 3c
       -0.22456628 0.04266618 -0.17669965 0.029941196
0001d0 6b c6 3f be 3b ee 86 bd b4 d4 5a 3d c9 9e 8a be
       -0.18728034 -0.065884076 0.053425506 -0.27074268
0001e0 65 55 0a 3e b4 33 91 bc 68 3b 5e bc 65 c8 7c bd
       0.13509138 -0.01772485 -0.013563968 -0.06171455
0001f0 aa 9b 06 bd 04 5d 97 3d 58 51 ba bd 58 f5 a9 bd
       -0.032863297 0.07390788 -0.09097546 -0.08298749
000200 93 22 eb bd ac 4b 5f 3e 9e 3c 27 be 25 a7 1b bc
       -0.11481204 0.2180621 -0.16331717 -0.0095003
000210 36 6b d5 3e 7b 21 e7 bd 17 81 56 3d a9 54 c1 bc
       0.41683358 -0.11285683 0.052369203 -0.02359994
000220 eb d8 8d 3e eb 42 43 3e 61 c0 01 be 53 86 44 be
       0.27704558 0.19068496 -0.12671043 -0.19191866
000230 68 4f 02 3d c9 a5 90 be 4b a7 29 3d a4 a0 13 3e
       0.03181401 -0.28251484 0.04141931 0.14416748
000240 71 99 31 be 88 fe e7 bd 9d e2 16 3e c9 eb aa bd
       -0.1734369 -0.11327845 0.14734884 -0.08345754
000250 4f 67 1a 3d d9 d9 a9 3e b6 35 c5 3e f3 f4 4e 3b
       0.03769618 0.33174017 0.3851754 0.0031579107
000260 3b 37 14 bd 09 de 1b 3e 95 6a cb 3c a3 27 39 3e
       -0.036185484 0.15221418 0.024831096 0.18081526
000270 19 90 c4 3e c6 95 bc 3e cc 0e 99 3e 23 e4 22 bb
       0.38391188 0.36833018 0.29894102 -0.0024855218
000280 31 d2 8d 3c 6b d3 9b be 3c c0 24 3d c4 ce 97 3e
       0.017312141 -0.30434737 0.04022239 0.29649937
000290 bc 7c ce be 43 95 0b 3e 10 f1 46 be 0b 6d 89 3e
       -0.4032954 0.13631158 -0.19427896 0.26841006
0002a0 29 16 1d bd 6e 70 13 be aa 72 42 3e 0c 26 32 3e
       -0.03835121 -0.14398357 0.18989053 0.17397326
0002b0 4c 39 d5 3e 89 d2 8a be 53 96 b8 3d c9 0f 22 3e
       0.41645277 -0.2711375 0.09013047 0.15826334
0002c0 a4 30 0a be cf 91 33 bd 6d 0d 2f 3e f1 52 d9 bd
       -0.13495117 -0.043840226 0.17094965 -0.10611523
0002d0 da 85 a1 bd 28 a4 d4 3d 00 2b a3 bd 1a 6f c6 3e
       -0.07886858 0.10382873 -0.07967186 0.3875664
0002e0 13 52 a2 3e 76 f6 30 3e 04 2a 27 bd 51 28 0f 3d
       0.31703243 0.17281517 -0.040811554 0.034950558
0002f0 ad a7 a3 3d d9 55 98 3d 7c f0 c4 3e 16 88 4a bd
       0.07990966 0.07438249 0.38464725 -0.049446188
000300 7f 21 6b 3e 38 a1 43 be b3 6b fe 3d f6 2e 06 3e
       0.22961996 -0.19104469 0.12422886 0.13103852
000310 13 23 15 be 61 af c5 3d cd 30 98 3d c3 70 97 3d
       -0.14564161 0.096525915 0.07431183 0.073945545
000320 8b cb 10 be 30 0d 36 be d2 4b 1b be 79 ca 3c be
       -0.14140145 -0.17778468 -0.15165642 -0.18436612
000330 4f 6a 13 3e cf e6 15 3e 6f 3d 13 be 6d c4 1c 3e
       0.14396022 0.14638828 -0.14378904 0.15309305
000340 4a 1e 2a 3d 83 19 37 be 78 93 cf 3d b3 ce f9 3c
       0.041532792 -0.17880826 0.10135549 0.03049407
000350 f6 67 05 be 26 63 31 3e 64 b8 e1 3d 2a 1c 25 3e
       -0.13027939 0.17322978 0.11021498 0.16124025
000360 86 58 38 bc f0 e6 62 3e 83 31 2b be 6d f4 a4 bc
       -0.011251574 0.22158408 -0.16718106 -0.020136083
000370 62 6f 97 3b 9c 86 ae 3d ab 88 78 3e 60 48 26 bc
       0.004621432 0.085217685 0.24270885 -0.0101490915
000380 d9 83 63 3e 31 be f8 bd ad f0 0e be 10 10 4f 3c
       0.22218265 -0.12145651 -0.13958998 0.012638107
000390 65 29 b6 3e ed d7 b0 bc ea 20 09 be 7b b2 08 3e
       0.35578457 -0.021587336 -0.13391462 0.13349335
0003a0 1f 30 1b bd 0c 96 16 3e 5f cb 27 3d d6 d6 dc 3b
       -0.03788769 0.14705676 0.040965434 0.0067394776
0003b0 b9 f7 59 be 3a e6 72 be 95 86 42 be 5d 99 1f 3d
       -0.21285905 -0.23720637 -0.18996651 0.038964618
0003c0 f2 f4 0c be dd b2 74 3d ce 3e e6 3d 33 a4 12 be
       -0.13765314 0.05974089 0.11242448 -0.1432045
0003d0 bd 07 b4 3d 6b 58 42 3e 89 4c 48 3e 67 60 86 bc
       0.087905385 0.18979041 0.19560446 -0.01640339
0003e0 93 8e 8d bc 10 34 11 bd b3 88 98 bd 83 6b 29 be
       -0.017279899 -0.03545004 -0.07447948 -0.16544919
0003f0 88 f2 e3 bc 4c 07 11 3e 5e d7 fd bd 83 9f 2b 3e
       -0.027825609 0.1416294 -0.12394594 0.16760068

sequential_10/dense_42/BiasAdd/ReadVariableOp:0 f4 [64]
000000 f9 6f 54 3d 62 0b 3b 3d 69 cf f5 bc 12 3c cc bc
       0.051864598 0.045665152 -0.030006127 -0.024930988
000010 91 8d 96 bc d8 b0 63 3b e6 92 91 39 43 23 dc bc
       -0.018378051 0.0034742858 0.00027766003 -0.026872283
000020 75 b7 af bc 5a f8 56 3d 30 84 8e bd 6f db f1 3a
       -0.021449784 0.05248294 -0.069588065 0.0018452237
000030 25 73 26 3c 0e 07 03 3c 5f 91 97 3a 95 47 b1 bc
       0.0101592885 0.007997287 0.001156371 -0.021640578
000040 ff 89 58 3d 97 39 13 bd a6 aa cf 3c a3 6c cc 3b
       0.05286598 -0.035943594 0.025349926 0.0062385364
000050 82 4b 9a 3c cd 95 0f 3d e9 4f 5f 3c 86 f5 96 bc
       0.018834833 0.03505497 0.013629892 -0.018427622
000060 b2 20 a2 bc 8b 01 24 3d 47 cc ff 3b 6a 99 38 bb
       -0.019790981 0.040040534 0.007806334 -0.0028167614
000070 d9 39 6c 3c 99 b4 b4 bc 4a 57 32 3c e0 6d 6c 3c
       0.014418089 -0.022058772 0.010885069 0.014430493
000080 ce 26 85 3c d6 ac 25 bb 36 45 d1 bc bb eb e0 3b
       0.016253855 -0.002528002 -0.025545698 0.0068640388
000090 0e d3 85 bc 37 16 c9 3c 59 91 17 3d 34 d3 46 3c
       -0.01633599 0.024546726 0.03700385 0.012135316
0000a0 cf 14 13 3b 4f 47 8d bd 76 a7 55 3d 92 23 7c 3d
       0.0022442823 -0.06898367 0.052161656 0.06155736
0000b0 f0 b8 ed 3c 92 42 bf 3c 42 3d b4 3c b9 27 91 3d
       0.02901885 0.023347173 0.022001866 0.070876546
0000c0 dd 36 85 bc 0a 89 54 3d 6c ed 03 3d 08 3f 2c 3d
       -0.016261512 0.051888503 0.032208845 0.0420523
0000d0 68 1c 67 bb 73 ee 8d 3d f0 24 6a 3c 56 40 a2 3c
       -0.0035264734 0.06930246 0.014291033 0.019806068
0000e0 37 39 6f 3c e4 20 56 bc 16 0b ed bc eb 98 95 3b
       0.014601043 -0.013069365 -0.02893595 0.0045653484
0000f0 3f a4 68 bd f8 fb 6d 3d a3 bd 9f bc 47 8b 9a bc
       -0.056797262 0.058101624 -0.019499606 -0.01886524

sequential_10/dense_41/MatMul/ReadVariableOp:0 f4 [64, 64]
000000 e1 86 92 bc 78 e5 59 be 8f 0e 3c be 95 3b 13 3c
       -0.01788658 -0.21278942 -0.18364929 0.008986373
000010 31 88 1b 3e 1e 85 7c bd 34 ab 44 3d f1 2f 77 3d
       0.15188672 -0.061650388 0.048014835 0.060348455
000020 c6 99 77 be ba 9c 44 3b 3d 3b 5e 3e 79 26 3c be
       -0.24179754 0.0030000643 0.21702285 -0.18374051
000030 a6 d5 4a be 8f 45 e5 bd f6 ef 6d be 25 0a 06 3e
       -0.19808063 -0.11194908 -0.23236069 0.13089807
000040 ab 2f 8d be 82 4a 50 bd 1e 1a 58 be 49 1f 6b 3e
       -0.2757543 -0.050852306 -0.21103713 0.22961153
000050 df 42 29 be e8 48 f2 3d 3b 13 1b be 28 86 76 be
       -0.16529416 0.11830312 -0.15144055 -0.24074614
000060 7d 14 09 be a5 3b 93 bd 99 62 81 bd 1c 74 16 3e
       -0.13386722 -0.07189111 -0.06317634 0.1469273
000070 5c d2 71 be 0a 27 f4 3d c6 61 8b bd a4 a2 37 3e
       -0.23615402 0.119215086 -0.06805758 0.17933136
000080 18 c0 4d 3e 12 2b 96 be 71 a7 80 3d aa 90 5b bd
       0.20092809 -0.29329735 0.06281937 -0.05360476
000090 1e cb db 3d 32 32 3b be f6 1a 30 be 63 71 76 bd
       0.10732101 -0.18280867 -0.17197785 -0.060166728
0000a0 3a aa ef bd fc a6 91 bd 0c ef 10 3e bd 8a 4d be
       -0.1170239 -0.07111928 0.14153689 -0.20072456
0000b0 60 9b c9 3d ae 5a 82 bd 72 6e cc 3d 99 28 8c be
       0.098440886 -0.06364952 0.09982003 -0.27374724
0000c0 72 e8 7a be 99 c4 89 be 73 53 82 3d c0 e2 9d 3d
       -0.24502733 -0.26907805 0.06363573 0.07709265
0000d0 ca 18 c1 3c bc bb 87 3c db 65 7b 3c 79 35 13 bd
       0.02357139 0.01656901 0.015344108 -0.035939667
0000e0 1b d2 9d 3d d6 0a 3d be be 46 a4 bd a4 eb 2e be
       0.0770609 -0.18461165 -0.080213055 -0.17082077
0000f0 75 e7 37 be 11 a7 7e 3a 47 df 1c be e5 86 ee bd
       -0.17959388 0.0009714226 -0.15319549 -0.11646823
000100 ea bf a1 be e1 6d 01 3c e6 c5 33 3e e8 7e 0b 3e
       -0.3159173 0.007899732 0.17555961 0.1362263
000110 99 4a cf bc 76 0f 50 3e b2 ec ee 3c ac 8f fc bd
       -0.025304126 0.20318398 0.0291656 -0.12332091
000120 58 5f 71 be 65 58 61 3e 79 d3 41 3e 40 eb 24 3e
       -0.23571527 0.22006376 0.18928327 0.16105366
000130 13 90 1f 3d b1 85 cc 3c f9 aa 20 3e a3 fb 72 bd
       0.03895576 0.024966093 0.15690221 -0.05932201
000140 b5 fb 10 be b3 f3 9f be b5 64 e5 3c 8f ea ef bd
       -0.14158519 -0.31240615 0.028002122 -0.117146604
000150 cb fa 85 3c dc d9 20 3e ba 17 35 be 58 e0 7e 3e
       0.016354939 0.15708107 -0.17684832 0.24890268
000160 39 c9 59 be cf 11 2e 3c 98 af 02 be e3 ca 44 be
       -0.21268167 0.010624363 -0.12762296 -0.1921802
000170 70 4c 00 be 8d c2 4c 3e 35 7b 8b 3e 0d 35 a8 bd
       -0.12529159 0.1999609 0.27242437 -0.08213244
000180 8b 08 ac bd d8 18 5d 3e 7c 7b 6b be fe 0e 09 3d
       -0.08400067 0.21591508 -0.22996324 0.033461563
000190 11 fd 93 3c 43 29 20 be 20 ca 88 3d 5d 1b 73 be
       0.018065007 -0.1564074 0.06679177 -0.23740907
0001a0 46 d4 5b bd 0b 53 73 bd 56 28 ea bd ee 95 f4 3d
       -0.053669237 -0.059405368 -0.11433475 0.11942659
0001b0 fc 97 9e 3b 08 09 8e bb c1 c9 af bc f3 48 8a bc
       0.0048398953 -0.0043345727 -0.021458508 -0.016880488
0001c0 f9 43 f5 3d 18 d1 e3 bc 51 7f 13 3d a7 2c 74 bd
       0.119758554 -0.027809665 0.03601009 -0.059612896
0001d0 d3 b3 f2 bd 1c 02 d6 bd 40 ec 94 3c 2b 4a 39 3e
       -0.11850705 -0.10449621 0.018179059 0.18094699
0001e0 20 6f 80 be 49 a0 04 be df 14 10 be 3b 38 86 be
       -0.25084782 -0.12951769 -0.14070462 -0.26214775
0001f0 5b 8a 8e 3c 8e 3f 25 3e c1 4b c8 bc 89 e7 ba be
       0.017399957 0.16137525 -0.024450185 -0.36504772
000200 fe 4e fc bd 78 68 b9 3d 4a 75 f2 3d 2c f6 d1 3d
       -0.12319754 0.09053129 0.11838777 0.10252032
000210 e6 e6 24 be 6c 8c 6b 3d 48 b7 7a be b3 1c a3 bd
       -0.16103706 0.057506964 -0.24483979 -0.07964458
000220 2b 33 4b be 3b c7 15 bc 06 8f a8 3d 7f c2 8b ba
       -0.19843738 -0.0091417385 0.082304046 -0.0010662823
000230 d3 20 4a 3e 36 a8 51 bd 72 28 6e bd 71 e4 d4 bc
       0.19739084 -0.05118581 -0.05814404 -0.025987836
000240 b9 b0 8a bd b0 eb e2 bd 80 2a 26 3e c7 33 78 3d
       -0.067719884 -0.1108011 0.1622715 0.060596254
000250 32 56 df bd a2 02 18 be e9 0f 7d 3d e4 54 e8 bd
       -0.10905112 -0.14844754 0.06178275 -0.113443166
000260 50 49 a1 be 21 5a ba bc a1 89 bd bd 61 04 2c be
       -0.31501245 -0.022748055 -0.09254766 -0.16798545
000270 2b fa 44 3e 9a 9b 7e be a6 69 75 bb db 85 cf be
       0.19236057 -0.24864045 -0.0037447005 -0.4053181
000280 70 5c 6b be 6e 32 14 be 7d 78 23 bd 84 01 5d 3e
       -0.22984481 -0.14472362 -0.03990983 0.2158261
000290 72 c4 98 bd 44 03 37 be 84 23 99 bc 4a 65 68 bd
       -0.07459344 -0.1787234 -0.018693693 -0.05673722
0002a0 fe 7d a4 3d 79 f0 a5 3d 1a 95 86 bd 85 c4 12 be
       0.080318436 0.08102507 -0.065714076 -0.14332779
0002b0 ed 69 4f 3e 8f aa c7 bd a3 59 8f be b7 bd 0c be
       0.20255251 -0.09749328 -0.27998075 -0.13744245
0002c0 33 60 19 be 0d 35 42 3d 70 46 ed 3d fc 67 75 be
       -0.14978103 0.047413874 0.115857005 -0.23965448
0002d0 84 9c 87 bd 96 3d 29 be 00 44 69 3e c4 02 7d be
       -0.0662165 -0.165274 0.22779846 -0.24708086
0002e0 7b 1e 7f 3e 51 fb 62 be 37 66 7e 3e 0d 87 0f be
       0.24913971 -0.22166182 0.2484368 -0.14016362
0002f0 33 78 bb 3d ce 3f 76 be 8a c7 85 3d 12 4b 15 be
       0.091537856 -0.24047777 0.065322 -0.14579418
000300 44 d1 dd 3d 79 2a 7d be 38 c1 75 3e e2 f6 3c 3e
       0.1083093 -0.24723233 0.23999488 0.18453553
000310 aa b0 32 be 89 e7 25 be 51 2f 59 be af 32 8c bd
       -0.17450204 -0.16201605 -0.21209456 -0.06845605
000320 81 ae 2f be fc b7 67 be 10 72 09 3d 23 b6 53 be
       -0.17156412 -0.22628778 0.033556044 -0.20674948
000330 bc af 0a be a5 2d 31 3e ea 46 27 3e 2d 04 f9 bd
       -0.135436 0.17302568 0.16335645 -0.121589996
000340 ba 35 27 be 60 6a 39 be 21 7f 31 3e cd 6e 03 3e
       -0.16329089 -0.18106985 0.17333652 0.12835236
000350 d5 89 bc 3c 60 f2 8e ba 27 41 2b 3e 65 bd 69 3e
       0.023014942 -0.0010905974 0.16724072 0.22826155
000360 8e 65 3d bd cb ff 63 be ec 74 21 3e 53 bf 11 be
       -0.04623943 -0.22265546 0.15767258 -0.1423314
000370 bb b5 4c 3c c7 5e 2c 3e 46 e3 58 be e3 33 6a 3e
       0.0124945 0.1683303 -0.21180448 0.22871356
000380 d9 29 18 be fc 7d 5b 3e 5e e5 52 3e a8 5f 5f 3e
       -0.14859714 0.21434778 0.20595309 0.21813834
000390 71 ea 4f 3e 2d 1c 5c 3d a3 a9 e6 3c a0 dc fc 3d
       0.20304276 0.053737808 0.028157061 0.123467684
0003a0 23 f7 87 bd b1 5d 4c 3e b9 10 e0 bd 7d 82 8f 3c
       -0.066389345 0.19957615 -0.109406896 0.017518276
0003b0 8c 7f 10 bf c2 bb 51 bc 49 96 26 be d5 14 98 3d
       -0.5644462 -0.012801113 -0.16268267 0.074258484
0003c0 00 b1 e2 3d ed 67 41 be ad 75 a0 3c 14 46 59 be
       0.11068916 -0.18887301 0.019587362 -0.21218139
0003d0 00 59 e9 bd 81 7d 73 3c 26 d0 a8 3c 5e 5c 88 be
       -0.113939285 0.014861465 0.020607065 -0.2663297
0003e0 2e 10 00 3d a0 41 0e be c9 a6 95 bc 1a d9 e2 bc
       0.03126543 -0.13892221 -0.018268006 -0.027691413
0003f0 38 69 24 be d3 74 7d be 7a de 39 3e 14 ff 28 3d
       -0.16055763 -0.24751596 0.18151274 0.041258886

sequential_10/dense_41/BiasAdd/ReadVariableOp:0 f4 [64]
000000 65 74 d2 bb b3 b1 84 bc 83 df 27 bc 1b 53 84 bd
       -0.0064225667 -0.016198015 -0.01024616 -0.064611636
000010 7c 3a c3 3c fe fe 94 bb c3 f9 1d 3d 95 d1 f9 3c
       0.023831598 -0.004546999 0.03856827 0.030495444
000020 ff 05 f7 bc 6c ef 00 bd 99 62 3d 3c 3f b5 a0 bb
       -0.030154226 -0.03147833 0.011559152 -0.0049044187
000030 dc af 7d bd 08 ef 14 bd 87 48 59 3c d9 59 93 3c
       -0.06193529 -0.03636077 0.013261921 0.017987179
000040 31 cf 71 bd b7 93 61 bc 9d f6 94 bc c8 c4 c3 3b
       -0.059035484 -0.013768128 -0.018184 0.005974386
000050 ba 1e d4 3c ac 5c e7 bc 51 7a 8e bc 6d d2 11 3c
       0.025893558 -0.028242432 -0.01739231 0.008900267
000060 90 a6 23 3d 9e 2d 03 3c ed 38 6a bc 02 ce 8f 3c
       0.03995377 0.008006481 -0.014295799 0.017554287
000070 1d 62 96 bc 8e 69 05 bc bc b9 5d 39 7b 20 9e bc
       -0.018357331 -0.008142842 0.00021145394 -0.019302597
000080 e7 31 11 3d 5f 07 33 bd 22 70 cb bb 8d 60 3a bd
       0.03544798 -0.0437082 -0.0062084356 -0.045502234
000090 22 48 56 bc 13 3f 0d bc 41 58 84 bc 0c ef 8d 3c
       -0.013078721 -0.008620995 -0.016155364 0.0173259
0000a0 94 36 00 bd 4c 8c a6 3c d0 23 0f 38 24 4d 7a bc
       -0.03130205 0.02033057 3.412721e-05 -0.015277181
0000b0 78 c4 86 3d 42 49 d9 bc 8b fc c1 bc ee 9e eb 3b
       0.06580442 -0.02652419 -0.023679992 0.0071905768
0000c0 81 a5 fa bb ad 3c 9a bd fc 8d 48 bc 52 15 49 3a
       -0.007649124 -0.07531104 -0.012240883 0.00076707185
0000d0 88 17 9c 3b 38 49 7c bd b9 c3 91 bc a1 f5 25 bd
       0.0047635473 -0.061593264 -0.017793523 -0.040517453
0000e0 64 47 1f 39 cc f4 07 bd 06 56 a3 3b 86 a2 b1 38
       0.00015190017 -0.03319244 0.00498462 8.47029e-05
0000f0 bb 61 5c 3c c0 75 e4 bc 2c 13 43 bc a0 db 94 3a
       0.013451035 -0.027888179 -0.011906426 0.0011356957

sequential_10/dense_40/MatMul/ReadVariableOp:0 f4 [11, 64]
000000 df 80 aa bd 0a 57 42 bd 32 df 23 3e ac 34 63 be
       -0.083253615 -0.04744629 0.16003111 -0.22188061
000010 a8 7e a8 bd c0 a4 06 be 3e 89 0b 3e e3 62 92 3e
       -0.08227283 -0.13148785 0.13626572 0.2859107
000020 4a 96 0b 3d 61 e3 01 bd 16 0f 07 3e 8b 7b 8e bd
       0.034078874 -0.031710986 0.13189349 -0.06957158
000030 6f dc c9 3c a1 75 a6 3c b1 d5 33 be f4 e6 75 3d
       0.024641244 0.020319762 -0.17561986 0.060034707
000040 1a 76 c5 bc 7c 32 81 3e ef dc 27 be d5 ce 49 be
       -0.024104167 0.2523383 -0.16392873 -0.19707806
000050 88 65 1c 3e a3 95 53 3e f7 b5 1e 3e f2 c0 77 3e
       0.15273106 0.2066255 0.15499102 0.24194697
000060 a0 5b a7 3c 79 44 82 3e 5b ee ca bd 3f c2 95 bd
       0.020429432 0.25442865 -0.09908744 -0.0731244
000070 e0 bf 23 3d a6 6d 2a 3e 05 9a 56 3e c2 09 0f bc
       0.039977908 0.1664339 0.20957191 -0.008730354
000080 53 88 1d be 60 ec b0 bd 32 49 9b be c9 29 14 3e
       -0.15384035 -0.08638835 -0.3032928 0.14469065
000090 8c 20 40 3e 9d ce 82 3e 36 31 e0 3c b4 20 58 3e
       0.18762416 0.25548258 0.027367216 0.21106225
0000a0 42 7f 3e 3e 9c 07 3b be 34 3a da 3d 1c f5 2e 3e
       0.18603233 -0.18264621 0.106556326 0.1708569
0000b0 6a aa 1c 3e 0e dd 22 be e2 b9 39 3e de 82 79 3e
       0.15299383 -0.15904638 0.18137315 0.24366328
0000c0 60 3b 1e be ed ab 84 3a 34 6d 52 3e 51 a5 23 3e
       -0.15452337 0.0010122039 0.2054947 0.15981032
0000d0 cc 73 51 be a6 ec 34 3e ab ac 58 be ae 4e 2e 3e
       -0.20454329 0.17668399 -0.21159618 0.17022201
0000e0 e1 e8 61 3d f7 df 83 be b2 85 1d be 79 cd 8d 3e
       0.05515373 -0.2575681 -0.15383032 0.27695826
0000f0 2c fa 3b bd f6 b0 11 3d 57 c6 81 3e fe 29 fe 3d
       -0.04589288 0.035569154 0.25346634 0.12410353
000100 f3 b3 31 be e1 4a f4 3c cd 5b ef 3d f4 24 6c be
       -0.17353801 0.029820861 0.116874315 -0.23060971
000110 8e de 3b 3e 59 2c f0 3c 3a a1 02 be 5e ef 55 3e
       0.18346617 0.029318022 -0.12756816 0.20892093
000120 42 0a 60 bc 75 04 eb 3c 36 21 9f bd f9 21 85 bd
       -0.013674321 0.028688649 -0.07770006 -0.065006204
000130 50 84 9d be 63 a9 c9 bd 0d ce b0 3d ee 9a 9c 3d
       -0.3076501 -0.09846761 0.08633051 0.07646738
000140 01 59 ce bd d9 03 e3 3c 12 47 45 3e e3 9b 07 be
       -0.1007557 0.027711796 0.19265392 -0.1324306
000150 5e ff 8e be 7b 5f 31 be 40 7f 2a be 10 39 ab be
       -0.27929205 -0.17321579 -0.16650105 -0.33441973
000160 be cb b5 3e 87 d3 81 3e 00 ba c9 be 26 78 f1 bc
       0.35507005 0.25356695 -0.3939972 -0.029476237
000170 e1 16 26 3e 25 92 2f be a1 17 81 3d 07 8a cb 3d
       0.16219665 -0.17145593 0.06303335 0.09938436
000180 64 bc c9 bd 0b 1d 0b 3c 63 13 0e 3e c9 5d ab bc
       -0.09850386 0.008490811 0.13874583 -0.020918744
000190 db 3d a2 3e d3 c7 1d be 07 90 69 be 1c 84 40 3e
       0.31687817 -0.15408258 -0.22808848 0.18800396
0001a0 00 ea bf 3e b5 16 e6 bd e7 df d0 3d f0 36 14 be
       0.37483215 -0.112348 0.10198956 -0.14474082
0001b0 b4 12 81 be df 51 6b bd 3e 1d 10 3e 0f 6d 86 3e
       -0.25209582 -0.057451125 0.14073655 0.2625508
0001c0 ef 21 0b 3e 29 72 8f 3c 53 66 5d 3d bb 9b 93 3e
       0.13587163 0.01751049 0.054052662 0.2882975
0001d0 83 87 26 be 29 5c 81 be b6 fd 37 be 35 14 6e 3e
       -0.16262631 -0.25265625 -0.17967877 0.23249896
0001e0 18 cc 5b be 1c 05 3c 3c 64 e9 64 3e 6d 05 51 be
       -0.21464574 0.011475828 0.22354656 -0.20412226
0001f0 56 7c 59 bc ff 29 aa 3d 01 b5 02 be ad a3 e3 bd
       -0.013274273 0.08308791 -0.1276436 -0.11115203
000200 8a ed 45 be 8b fa de bd d4 1c 4f 3d bd 0d 8f 3d
       -0.19328895 -0.10887631 0.050564602 0.06985042
000210 2a 8e 3b bc 37 ea b2 3c ca 88 4e 3d 8a 62 ef 3c
       -0.011447469 0.021840198 0.05042342 0.029221792
000220 27 3c 63 bd 45 be 69 3d 93 d1 00 be 46 a7 55 3e
       -0.055477288 0.05706622 -0.12579946 0.20864591
000230 b3 bc 09 be af 09 0f be 76 cb 82 bd 0f 96 5d be
       -0.1345089 -0.13968538 -0.06386463 -0.21639274
000240 3b 99 74 be 53 59 44 be 60 c4 ea 3d c5 f4 07 bd
       -0.23886578 -0.191747 0.11463237 -0.033192415
000250 c8 01 d5 3d c8 59 08 3d 2c 30 c4 3c 4e 0b b7 3d
       0.1040073 0.033288747 0.023948751 0.08937703
000260 87 ad 05 3e 52 00 ae bd c2 4d 28 be 75 ac 96 be
       0.13054477 -0.08496155 -0.16435912 -0.2942845
000270 4e c4 22 be d6 7d 4b bd 71 cf 14 be 8a 49 5e be
       -0.15895197 -0.049680553 -0.14532258 -0.2170774
000280 21 17 28 be d1 2f bf bd 87 b5 34 be 56 32 95 bd
       -0.16415073 -0.09335292 -0.17647372 -0.072849914
000290 60 6b f2 3d e2 d7 31 3e 2f 7f 93 be 12 ca 2f be
       0.118368864 0.17367509 -0.2880797 -0.17166927
0002a0 66 08 6a be d5 3f 91 bd d4 39 a0 3c e1 9e 11 bd
       -0.22854766 -0.07092253 0.019558825 -0.03555191
0002b0 1d 3a ea 3b 14 29 59 3e 57 85 d7 b8 fb de 48 be
       0.007148041 0.21207076 -0.000102768354 -0.1961631
0002c0 26 35 4b be 20 f1 af 3d 6d c4 d4 3d 37 a2 f0 bd
       -0.19844493 0.08590913 0.10389028 -0.1174969
0002d0 74 75 0b be ce 6c 12 be 7f 77 e1 3d 09 ae ee 3d
       -0.13619024 -0.14299318 0.1100912 0.11654288
0002e0 ce e3 3d be 7d 01 2b bb 58 95 89 3e 62 33 93 3e
       -0.18543932 -0.0026093416 0.26871753 0.2875014
0002f0 d5 2a 45 3e de 6b e7 3d da 96 26 bd b4 46 12 3e
       0.1925462 0.11299871 -0.040671207 0.14284784
000300 8d e2 26 3e 5d 01 4c 3e 23 68 f0 bd 4d 6e 57 be
       0.1629736 0.19922395 -0.117386125 -0.2103817
000310 b6 56 0e bd c3 d9 33 bd 27 f8 56 be ac d9 99 be
       -0.034750663 -0.043908846 -0.209931 -0.30048883
000320 54 c5 e1 bd 44 71 83 3e 04 46 83 be a2 57 1d be
       -0.110239655 0.25672352 -0.25639355 -0.1536546
000330 bc 7d 07 3e c8 82 15 3e 8c e7 79 be 20 7e 06 be
       0.13231558 0.1460067 -0.24404734 -0.1313405
000340 52 da bd be e7 0e 50 bd 10 c6 1f 3e 4e 7a c5 3d
       -0.37080628 -0.050795462 0.15602899 0.096424684
000350 04 9b 71 3e 00 56 1e bc 28 5c f6 3d fc 75 05 3c
       0.2359429 -0.009664059 0.12029296 0.008145805
000360 d8 60 8c be 63 d8 64 be 8a 5c 8f 3e b7 0b 98 be
       -0.27417636 -0.2234817 0.2800029 -0.29696438
000370 fb 3a 42 be 85 8c 01 be 16 75 4d 3e 64 c0 25 3e
       -0.18967812 -0.1265126 0.20064196 0.16186672
000380 ca 60 08 bc 56 f7 cd bd d0 24 5a be fb 11 7c 3d
       -0.008323858 -0.10056941 -0.21303105 0.061540585
000390 a9 3a 69 3c 9f 51 0b be fe b4 04 3e 1c f5 80 3e
       0.014235177 -0.13605355 0.12959668 0.25187004
0003a0 ff 2b ac 3d 50 6c 9a bd 36 ba 9a 3e 3c ed 90 3e
       0.08406829 -0.0754019 0.30220193 0.28305995
0003b0 37 eb 74 3e 9d 3d f5 bd 8b ac 8a be e5 0a 09 be
       0.23917852 -0.119746424 -0.27084765 -0.13383062
0003c0 38 77 49 3e 4e 9b 44 be f8 f4 63 3e 1d 09 4e 3e
       0.19674385 -0.19199869 0.22261417 0.20120664
0003d0 4d 95 32 be c4 7e 70 bd 74 f6 05 be f3 d9 d0 3c
       -0.17439766 -0.058714643 -0.13082296 0.025494551
0003e0 f5 63 57 be 75 6f 98 be 49 95 4b be 2a 93 0a 3d
       -0.21034224 -0.29772535 -0.19881167 0.033831753
0003f0 c9 90 ab 3e cd 7e ba be d9 85 84 be 81 70 6a be
       0.335089 -0.36424866 -0.25883368 -0.2289448

sequential_10/dense_40/BiasAdd/ReadVariableOp:0 f4 [64]
000000 13 32 f7 3c ad e3 c2 bc 00 cb 39 bd a9 37 8d 3c
       0.030175244 -0.023790205 -0.04535961 0.017238455
000010 cb 14 82 bd 22 5f 81 bd f6 ae c8 bd 9f bf 84 3c
       -0.06351622 -0.06316973 -0.09798996 0.016204653
000020 18 be a0 bd 55 18 c7 3c 33 60 14 be 3a 13 a2 bc
       -0.078487575 0.024303595 -0.14489822 -0.019784559
000030 9d 7b fc bc 6f c7 2a 3c d4 01 21 bd 5d e5 8a 3c
       -0.030820662 0.010423525 -0.039308384 0.016955072
000040 be 57 15 3a f3 eb 33 bd 92 a7 c0 3c 7c e1 8f bd
       0.00056969735 -0.04392619 0.023517404 -0.070254296
000050 65 c2 66 3c 3e f3 d7 bb c2 97 4a bd 22 df 61 bd
       0.014084433 -0.006590276 -0.049461134 -0.055144437
000060 89 a5 00 3d 4f d8 97 ba df 4e d0 3c d6 49 b3 ba
       0.031407867 -0.0011584851 0.025428234 -0.0013678621
000070 07 b8 3a 3b 0f 41 49 bc cf 59 c3 bd 14 92 81 bc
       0.0028491037 -0.012283578 -0.09538614 -0.015816726
000080 10 26 b9 bd 71 c7 89 bc 4e 34 c9 bd 3b f1 10 bd
       -0.09040463 -0.016818734 -0.098244295 -0.035386305
000090 27 20 b8 bc 8e b5 8a bd e6 73 14 bd 36 21 1f bd
       -0.022476269 -0.0677291 -0.036243342 -0.03885003
0000a0 7a 40 92 bd 9c f9 ba bd 0c 7f 39 3d 7f ab c6 bc
       -0.07141204 -0.091296405 0.045287177 -0.024251698
0000b0 b2 c9 3f bd 4f be bf bc 0d 57 ec bc 82 db 85 bc
       -0.04682321 -0.023406176 -0.028850103 -0.016340021
0000c0 5c fd ee bb ad 11 33 3d bb 39 a8 3c 94 4e f4 3c
       -0.0072933864 0.04371803 0.02053534 0.029822625
0000d0 d5 4e d6 bb 77 69 7d bd a7 bb 86 3d c7 63 c2 3b
       -0.006540159 -0.061868157 0.065787606 0.0059323045
0000e0 70 40 f6 bd 22 02 46 3d 1a ff e5 bc 4b ae d0 3c
       -0.12024009 0.048341878 -0.028075743 0.025473734
0000f0 50 c4 ee bc 30 8b 4f bd 0e b0 72 bb 88 ec cb bd
       -0.029146343 -0.05066985 -0.0037031206 -0.09957224

sequential_10/customer_data/batchnorm/sub:0 f4 [11]
000000 6d 97 12 bf 6c 3d 47 c0 50 c9 f2 bf ff c3 6a bf
       -0.5726231 -3.113124 -1.8967686 -0.91705316
000010 f2 f3 58 bf df dc d7 bf ae b4 d7 bf 5f ee fc c1
       -0.8474723 -1.686428 -1.6852014 -31.616392
000020 95 6f 6f be c6 fe bc c0 7f 95 f2 bf
       -0.23382409 -5.9061003 -1.8951873

sequential_10/customer_data/batchnorm/mul:0 f4 [11]
000000 f0 04 9a 3f 09 4b 69 37 b0 81 62 3f 11 86 10 40
       1.2032757 1.3905353e-05 0.8847914 2.2581828
000010 7b 04 05 40 5a 2d 18 40 12 43 0f 40 72 fb fc 41
       2.0783985 2.377768 2.2384686 31.622776
000020 b2 42 77 40 9e 60 cc 39 ae 9a 34 3a
       3.8634458 0.00038981898 0.0006889504
