onnx-loan-model-modelcar/data/loan_model_beta/1/model.onnx (onnx, 40390 bytes, 9 tensors)

sequential_11/dense_47/MatMul/ReadVariableOp:0 f4 [64, 1]
-0.1851896 0.18993641 -0.037225183 -0.065286025 0.05159275 -0.35304534 0.22200994 -0.098159455
0.38794345 -0.34149504 -0.21225493 -0.023769425 -0.24444814 -0.18390621 0.3291885 0.2882349
-0.28560808 -0.13922933 -0.27035925 -0.10865701 -0.33588585 0.18219048 0.3908437 0.15066727
-0.3044636 0.24507624 -0.29654884 0.052934684 0.10161686 0.42849675 0.1295834 -0.31274801
-0.24421482 -0.25335035 -0.08208058 0.1211824 -0.28959268 0.19930947 -0.30830815 0.18992949
-0.21398902 -0.3025878 0.3625849 0.45133522 0.1652727 -0.25511053 0.19327725 -0.22819534
-0.016989129 -0.07704779 -0.27221772 -0.30206245 -0.20921007 0.31789118 -0.21298799 0.3896152
0.4686138 0.08773102 0.22970517 0.31736848 -0.14436151 0.32546163 0.036210522 -0.0495689
00000000: 58a2 3dbe b17e 423e 6f79 18bd aeb4 85bd
00000010: eb52 533d 5cc2 b4be 9356 633e d307 c9bd
00000020: 86a0 c63e 70d8 aebe 5b59 59be 19b8 c2bc
00000030: 9d50 7abe e951 3cbe 658b a83e 8693 933e
00000040: 393b 92be 2292 0ebe 876c 8abe 9187 debd
00000050: 3bf9 abbe 2490 3a3e aa1c c83e 8548 1a3e
00000060: a7e2 9bbe 44f5 7a3e 40d5 97be 0ad2 583d
00000070: 801c d03d ed63 db3e 83b1 043e 8220 a0be
00000080: 7313 7abe 23b7 81be dd19 a8bd 7a2e f83d
00000090: 7e45 94be c817 4c3e 91da 9dbe e07c 423e
000000a0: f01f 5bbe caec 9abe baa4 b93e 6915 e73e
000000b0: 3f3d 293e d99d 82be 79ea 453e 0aac 69be
000000c0: c92c 8bbc 3bcb 9dbd 1f60 8bbe eea7 9abe
000000d0: 2a3b 56be a2c2 a23e 8619 5abe a57b c73e
000000e0: 26ee ef3e 52ac b33d d537 6b3e 1f7e a23e
000000f0: 81d3 13be e8a2 a63e 7c51 143d c208 4bbd

sequential_11/dense_46/MatMul/ReadVariableOp:0 f4 [64, 64]
0.050308805 -0.19174486 0.19563116 0.22678255 0.06175175 -0.15675671 0.112627245 -0.17058595
-0.11186701 0.015987162 0.009697508 -0.19715814 0.2263882 0.21461965 -0.041758467 -0.21453044
0.21450983 0.1260867 0.053594403 0.22192284 0.10543548 -0.12164466 -0.04123728 0.13761638
0.07531701 0.10069998 0.05651728 0.102094434 -0.011198604 0.13153403 -0.23449227 0.067971654
0.094514586 0.12797064 -0.023281293 -0.044617683 0.11966164 0.07863635 0.018608317 0.032615107
-0.044137176 -0.19635269 -0.14242029 0.12387758 -0.07036806 -0.12005911 0.09452239 -0.088974476
-0.085574694 -0.1669949 0.1417939 -0.11434529 0.12323007 0.07569349 0.12555547 0.042439777
-0.09779146 0.07720809 0.15635248 -0.08041139 -0.25662938 -0.17147464 0.09065718 0.15353486
-0.0089217825 -0.004408796 0.0020791003 0.12437823 0.12604211 -0.00807819 0.22193265 0.20005432
-0.007942459 -0.09924125 0.061219543 -0.17876029 -0.0036089222 0.13501918 0.24289691 0.009731604
0.08966288 -0.17160207 0.01080623 0.1577349 -0.022770584 0.15310585 0.06795686 -0.08548998
-0.15654828 0.11152439 0.16652575 0.074429974 0.20725238 0.04147416 0.035584684 0.033669498
0.14844267 -0.09497662 0.037969463 -0.12792863 0.21632798 -0.021135274 0.22680315 0.026944477
0.100024216 -0.06739176 0.2165988 -0.08513864 0.0038542254 0.022754204 0.11522445 -0.20375352
-0.13244621 0.021647198 -0.19126743 -0.039847605 -0.23537688 -0.0965357 0.027815392 -0.21471325
0.107096195 0.024160162 -0.14182472 -0.08825411 -0.1492415 0.10775327 -0.1603509 -0.12401134
-0.07320048 0.11935652 -0.20399216 -0.013661055 0.068643644 -0.21083756 0.004393476 -0.0925613
0.19282363 0.20288794 -0.12735963 -0.19191866 0.015068551 -0.19395386 -0.15367384 0.13345109
-0.2703222 -0.069169685 0.13739926 -0.09377059 0.04604028 0.28010547 0.3225168 -0.002124789
0.051299475 0.03196936 0.06250598 0.14223863 0.32406992 0.32858595 0.24654232 0.00084833533
0.022232508 -0.2761594 0.07415773 0.24627438 -0.25962377 0.065641426 -0.14821145 0.20433494
-0.057528652 -0.14398357 0.09343388 0.09307124 0.2519135 -0.21473756 0.03262189 0.17425051
-0.15085322 -0.09625924 0.17644295 -0.18525198 -0.09001053 0.09712782 -0.03758743 0.020723958
0.2566877 0.11755461 0.049062178 -0.0792703 0.09750418 -0.04042207 0.1906993 -0.1777864
0.1431387 -0.18134391 0.1328175 0.12378735 -0.18341962 0.119412296 0.05350452 0.11786102
-0.15206705 -0.12844783 -0.12520315 -0.19017155 0.13486452 0.12619452 -0.1918918 0.1694899
0.044264283 -0.18084972 0.12286673 0.050717454 -0.08587614 0.16712506 0.10584591 0.19359604
-0.03296903 0.21337195 -0.121524855 -0.0002545266 -0.030046051 0.1106873 0.21229012 -0.01820209
0.22516999 -0.08532724 -0.102205314 0.001923471 0.28521332 -0.059924908 -0.09817676 0.17095561
-0.03535561 0.18152845 0.018416649 0.041545596 -0.18152137 -0.13721466 -0.19049141 -0.067146614
-0.115043215 0.029694557 0.10116916 -0.17199032 0.08787346 0.2380397 0.23003748 0.0014427076
-0.017284896 -0.04878749 0.012528226 -0.1760498 -0.031279907 0.13052697 -0.17832719 0.17893104
00000000: 9b10 4e3d c458 44be 8953 483e af39 683e
00000010: 67ef 7c3d d584 20be 1da9 e63d 15ae 2ebe
00000020: 881a e5bd 82f7 823c 4ce2 1e3c d3e3 49be
00000030: 4fd2 673e 41c5 5b3e ed0a 2bbd dead 5bbe
00000040: 77a8 5b3e df1c 013e ce85 5b3d be3f 633e
00000050: 8fee d73d d620 f9bd 6ce8 28bd 4feb 0c3e
00000060: ce3f 9a3d cb3b ce3d aa7e 673d e316 d13d
00000070: 597a 37bc dbb0 063e be1e 70be b934 8b3d
00000080: dd90 c13d bc0a 033e 69b8 bebc 08c1 36bd
00000090: 2911 f53d 180c a13d 7870 983c 6b97 053d
000000a0: 2fc9 34bd ae10 49be a0d6 11be 87b3 fd3d
000000b0: 211d 90bd 8de1 f5bd f494 c13d 4038 b6bd
000000c0: c941 afbd b600 2bbe 6c32 113e dd2d eabd
000000d0: 0c60 fc3d 3005 9b3d 9d91 003e 55d5 2d3d
000000e0: e446 c8bd 461f 9e3d dd1a 203e baae a4bd
000000f0: ed64 83be 0c97 2fbe 79aa b93d 3e38 1d3e
00000100: ab2c 12bc a977 90bb 8441 083b 03ba fe3d
00000110: 2f11 013e 625a 04bc 5042 633e 0adb 4c3e
00000120: 1621 02bc ff3e cbbd 58c1 7a3d f00c 37be
00000130: ab83 6cbb 7842 0a3e f8b9 783e 4e71 1f3c
00000140: 2ca1 b73d 74b8 2fbe 9d0c 313c 4285 213e
00000150: 6089 babc c8c7 1c3e f72c 8b3d 5f15 afbd
00000160: 314e 20be e666 e43d ba85 2a3e be6e 983d
00000170: f839 543e cfe0 293d 3fc1 113d 07e9 093d
00000180: 5b01 183e 1a83 c2bd de85 1b3d b9ff 02be
00000190: 1585 5d3e e223 adbc 163f 683e aaba dc3c
000001a0: 7fd9 cc3d b104 8abd 13cc 5d3e 2b5d aebd
000001b0: 2c97 7c3b 0667 ba3c ccfa eb3d c3a4 50be
000001c0: fb9f 07be 7755 b13c 9cdb 43be 3e37 23bd
000001d0: a306 71be 82b4 c5bd 1bdd e33c cadd 5bbe
000001e0: 4055 db3d 88eb c53c 803a 11be 92be b4bd
000001f0: c4d2 18be bfad dc3d 0733 24be a8f9 fdbd
00000200: 22ea 95bd 3171 f43d 52e3 50be 9ed2 5fbc
00000210: 0a95 8c3d cde5 57be 26f7 8f3b c790 bdbd
00000220: 8f73 453e dbc1 4f3e 906a 02be 5386 44be
00000230: 15e2 763c d79b 46be ad5c 1dbe 67a7 083e
00000240: ac67 8abe d6a8 8dbd 64b2 0c3e cc0a c0bd
00000250: bc94 3c3d fc69 8f3e ec20 a53e 0b40 0bbb
00000260: 661f 523d 4ef2 023d 2303 803d 01a7 113e
00000270: 7eec a53e 6b3c a83e 9775 7c3e d262 5e3a
00000280: f320 b63c c464 8dbe 02e0 973d 5a2f 7c3e
00000290: 68ed 84be 036f 863d bec4 17be 2e3d 513e
000002a0: 2aa3 6bbd 6e70 13be 435a bf3d 229c be3d
000002b0: cefa 803e 2ae4 5bbe 889e 053d ba6e 323e
000002c0: 4479 1abe 9023 c5bd 76ad 343e b2b2 3dbe
000002d0: 7157 b8bd f3ea c63d 47f5 19bd 4ac5 a93c
000002e0: 926c 833e 79c0 f03d 6cf5 483d 7858 a2bd
000002f0: 46b0 c73d 9d91 25bd ad46 433e a30d 36be
00000300: f492 123e 38b2 39be 5001 083e 3984 fd3d
00000310: 5ad2 3bbe 6f8e f43d 8e27 5b3d 1e61 f13d
00000320: 77b7 1bbe d487 03be 4135 00be 55bc 42be
00000330: ed19 0a3e 2339 013e 497f 44be c38e 2d3e
00000340: 774e 353d ab30 39be 8da1 fb3d 1bbd 4f3d
00000350: d4df afbd d522 2b3e bec5 d83d 0a3e 463e
00000360: 890a 07bd 2d7e 5a3e 06e2 f8bd fb71 85b9
00000370: 2323 f6bc 06b0 e23d 9562 593e 8d1c 95bc
00000380: f692 663e 0cc0 aebd 0551 d1bd fa1c fc3a
00000390: 7b07 923e d273 75bd e610 c9bd fd0e 2f3e
000003a0: 0bd1 10bd 98e2 393e 83de 963c b72b 2a3d
000003b0: bde0 39be 0082 0cbe 2e10 43be 2a84 89bd
000003c0: c79b ebbd 0042 f33c c731 cf3d 3b1e 30be
000003d0: 00f7 b33d aec0 733e f28e 6b3e 3c19 bd3a
000003e0: 0e99 8dbc 64d5 47bd 3043 4d3c 6646 34be
000003f0: 5c1f 00bd dda8 053e 679b 36be b339 373e

sequential_11/dense_46/BiasAdd/ReadVariableOp:0 f4 [64]
0.049854983 0.025750538 -0.00014999573 -0.028369414 -0.018495494 0.028816374 0.01936832 0.018371675
0.0052046557 0.031347897 -0.021165492 -0.010277861 0.010183736 -0.004745543 0.049081072 0.026707139
0.022011215 0.013889212 0.01680305 0.018274993 0.033501297 0.012331597 0.0067585176 0.0023059298
-0.0018423605 0.008592932 0.026372457 0.014766328 0.008246022 0.000635844 0.018091446 -0.003907508
0.004236156 0.010387624 0.06363895 0.016261248 0.016625632 0.010394486 0.026085151 0.0019622864
0.00019829176 -0.021579426 0.044286776 0.06314424 0.008102887 0.015640676 0.014498853 0.05629637
-0.039883018 0.017863503 0.0062406324 0.052266303 -0.008719278 0.06629303 0.029217936 0.02784249
-0.015533628 -0.003212287 0.015751082 0.04254552 -0.020826384 0.05266837 -0.01663022 0.04499222
00000000: bd34 4c3d cbf2 d23c 2c48 1db9 f966 e8bc
00000010: dd83 97bc 5110 ec3c 50aa 9e3c 3280 963c
00000020: d18b aa3b a766 003d 4163 adbc 7964 28bc
00000030: afd9 263c 8080 9bbb 3c09 493d eec8 da3c
00000040: dd50 b43c 948f 633c 8da6 893c 70b5 953c
00000050: a838 093d 770a 4a3c 8e76 dd3b 151f 173b
00000060: 5c7b f1ba 5ec9 0c3c 0d0b d83c 78ee 713c
00000070: 531a 073c c5ae 263a 8334 943c 8e0a 80bb
00000080: 74cf 8a3b da30 2a3c 2355 823d 4f36 853c
00000090: 7a32 883c a24d 2a3c 87b0 d53c b499 003b
000000a0: 8aec 4f39 56c7 b0bc 0d66 353d c451 813d
000000b0: f9c1 043c e020 803c 998c 6d3c 0697 663d
000000c0: 605c 23bd 7b56 923c 387e cc3b 3115 563d
000000d0: 4ddb 0ebc a4c4 873d 745a ef3c ef15 e43c
000000e0: c280 7ebc 3c85 52bb 6a08 813c 3644 2e3d
000000f0: 189c aabc caba 573d 193c 88bc c349 383d

sequential_11/dense_45/MatMul/ReadVariableOp:0 f4 [64, 64]
-0.035981294 -0.15019982 -0.13523255 0.056067675 0.1147912 -0.066821106 -0.021902304 0.07633576
-0.17402518 0.094012976 0.20626754 -0.22693084 -0.23158436 -0.1579599 -0.25974756 0.12508504
-0.1888948 0.065470226 -0.20328617 0.1668958 -0.14711164 0.1333802 -0.09555019 -0.14578138
-0.10214552 -0.034439154 -0.088124394 0.15305462 -0.18644096 0.121053725 0.08360892 0.14655781
0.20713341 -0.26424676 0.03723888 0.009558577 0.07273718 -0.2012453 -0.17654161 -0.045207944
-0.19000752 0.0050426335 0.1613513 -0.2060233 -0.00047428743 -0.045096915 0.07990114 -0.11712464
-0.15984441 -0.0020804459 0.09165279 -0.055346716 0.026189165 0.04045749 0.03824022 -0.102273114
0.11702788 -0.032558903 -0.09314206 -0.18939064 -0.226217 -0.02287478 -0.16284558 -0.11903245
-0.34809342 0.051367655 0.20199086 0.18318452 -0.031054277 0.15548992 0.049244057 -0.082775004
-0.1955964 0.19100969 0.19089831 0.07484939 0.04630572 -0.03672615 0.07705778 -0.05134171
-0.15142457 -0.30923977 0.059855033 -0.10421965 -0.026206452 0.16516836 -0.18667336 0.23241384
-0.16008343 0.048387848 -0.15983945 -0.1476862 -0.16320951 0.21919501 0.26147854 -0.08610334
-0.006894997 0.15492478 -0.20516346 0.05808007 0.014443889 -0.13853912 0.07885905 -0.19199269
-0.22570631 -0.041574456 -0.11822446 0.1378711 -0.032847762 0.0017361648 -0.045448765 -0.032281946
0.116121255 -0.08874088 0.052935295 -0.034967043 -0.15665446 -0.12732825 -0.011285861 0.25969264
-0.2613125 -0.05029505 -0.12562717 -0.22635807 -0.023051988 0.17634381 -0.016034247 -0.2707856
-0.11471249 0.018292883 0.13830557 0.1790603 -0.05227981 0.13814482 -0.10896353 -0.0945625
-0.16968821 -0.01753009 0.119309455 -0.00890536 0.19697122 -0.11535434 -0.018132156 -0.0690014
-0.05661744 -0.12819509 0.20467421 0.07383791 -0.15597925 -0.065277025 0.07276734 -0.12352892
-0.19979405 0.046327226 -0.052777167 -0.18162438 0.25419214 -0.11782757 0.018259522 -0.28683597
-0.18204333 -0.17510028 -0.045156743 0.08255449 -0.08170043 -0.19361532 -0.0052340752 -0.047933728
0.1270577 0.061836768 -0.01198476 -0.09834952 0.26110178 -0.14491907 -0.38393432 -0.14531155
-0.16978498 0.05571911 0.13701098 -0.16081549 -0.081681535 -0.05307642 0.16429837 -0.15350094
0.022093968 -0.14806426 0.23158082 -0.1544583 0.12659767 -0.20883289 -0.008664912 -0.13778739
0.14693919 -0.23047453 0.20646504 0.18716758 -0.08232645 -0.1607499 -0.19385605 0.013200698
-0.08294998 -0.18128558 0.10662677 -0.13061105 -0.14316522 0.18844554 0.1427494 -0.12517035
-0.038850803 -0.080153406 0.083426036 0.09638869 -0.019102773 -0.0052740397 0.13914941 0.23076178
-0.14741531 -0.09130751 0.15664695 -0.09987431 0.007225414 0.21794023 -0.22059108 0.1894761
-0.14391167 0.18347247 0.23035899 0.1874033 0.15922476 0.028897205 0.08259865 0.12902722
0.0012241028 0.18621354 -0.07987625 0.01965773 -0.19218686 -0.089241736 -0.13008954 0.16594085
0.14363089 -0.073608086 0.035576776 -0.14818521 -0.15451933 0.0615628 0.041550804 -0.23171374
0.078207895 -0.085389055 -0.091960855 -0.014180959 -0.093545765 -0.18847165 0.18173477 0.0644431
00000000: 1f61 13bd fbcd 19be 677a 0abe 38a7 653d
00000010: a617 eb3d 81d9 88bd 766c b3bc ec55 9c3d
00000020: a833 32be e089 c03d cc37 533e 8f60 68be
00000030: 7324 6dbe 3dc0 21be a2fd 84be 4b16 003e
00000040: a36d 41be 4115 863d 402a 50be bce6 2a3e
00000050: 6fa4 16be d294 083e d1af c3bd b747 15be
00000060: ac31 d1bd 1210 0dbd 907a b4bd 5aba 1c3e
00000070: 61ea 3ebe 04eb f73d 273b ab3d 4013 163e
00000080: c81a 543e 5a4b 87be cc87 183d 949b 1c3c
00000090: 3bf7 943d 3f13 4ebe 53c7 34be f72b 39bd
000000a0: 5591 42be ad3c a53b 4639 253e c6f7 52be
000000b0: c8a9 f8b9 8bb7 38bd 35a3 a33d 0bdf efbd
000000c0: 41ae 23be 1758 08bb 75b4 bb3d 3db3 62bd
000000d0: a98a d63c c1b6 253d c7a1 1c3d 9174 d1bd
000000e0: 50ac ef3d 7c5c 05bd 44c1 bebd 9fef 41be
000000f0: 6ea5 67be e463 bbbc fec0 26be 49c7 f3bd
00000100: 4d39 b2be e466 523d b1d6 4e3e b994 3b3e
00000110: 8a65 febc c038 1f3e 23b4 493d f185 a9bd
00000120: 6c4a 48be 0b98 433e d97a 433e a34a 993d
00000130: 11ab 3d3d 296e 16bd 78d0 9d3d af4b 52bd
00000140: 0b0f 1bbe ad54 9ebe 8d2a 753d 1d71 d5bd
00000150: eaae d6bc e521 293e 4d27 3fbe e5fd 6d3e
00000160: e9ec 23be 5632 463d f4ac 23be 0d3b 17be
00000170: 6520 27be a874 603e 84e0 853e f356 b0bd
00000180: 6def e1bb 9aa4 1e3e 5f16 52be 5ee5 6d3d
00000190: 10a6 6c3c 33dd 0dbe db80 a13d bb99 44be
000001a0: 8e1f 67be fa49 2abd aa1f f2bd 152e 0d3e
000001b0: 608b 06bd 0690 e33a 7c28 3abd 133a 04bd
000001c0: fbd0 ed3d c7bd b5bd aed2 583d 9a39 0fbd
000001d0: 076a 20be 5662 02be 55e8 38bc 6ff6 843e
000001e0: c1ca 85be 2f02 4ebd 69a4 00be 69ca 67be
000001f0: 86d7 bcbc 7993 343e 415a 83bc 69a4 8abe
00000200: 62ee eabd f5da 953c fa9f 0d3e 955b 373e
00000210: 5b23 56bd d675 0d3e 4528 dfbd fca9 c1bd
00000220: bfc2 2dbe 439b 8fbc 8458 f43d c9e7 11bc
00000230: d3b2 493e e53e ecbd e389 94bc 9b50 8dbd
00000240: b0e7 67bd 9345 03be 1e96 513e 5538 973d
00000250: 06b9 1fbe f6af 85bd 0b07 953d bbfc fcbd
00000260: d096 4cbe 9ec1 3d3d df2c 58bd befb 39be
00000270: 7925 823e 954f f1bd fe94 953c 2adc 92be
00000280: 9169 3abe 7d4d 33be 47f6 38bd 5412 a93d
00000290: 8e52 a7bd 1843 46be 9b82 abbb 2856 44bd
000002a0: 6a1b 023e 8d48 7d3d ba5b 44bc 796b c9bd
000002b0: 22af 853e aa65 14be 0a93 c4be 8dcc 14be
000002c0: 1ddc 2dbe b939 643d 9b4c 0c3e d1ac 24be
000002d0: a648 a7bd a966 59bd d53d 283e 5a2f 1dbe
000002e0: 69fe b43c 289e 17be 8623 6d3e 512a 1ebe
000002f0: d2a2 013e 4ad8 55be 46f7 0dbc 2318 0dbe
00000300: 3a77 163e 8401 6cbe 926b 533e dca8 3f3e
00000310: c59a a8bd 9f9b 24be 3382 46be be47 583c
00000320: aee1 a9bd eda2 39be 235f da3d e7be 05be
00000330: e799 12be def7 403e e62c 123e a82c 00be
00000340: 0522 1fbd 7827 a4bd 45db aa3d 6f67 c53d
00000350: 6b7d 9cbc dad1 acbb 2f7d 0e3e d14c 6c3e
00000360: 0af4 16be 6fff babd 0f68 203e e78a ccbd
00000370: 2ac3 ec3b b92b 5f3e a1e2 61be 0606 423e
00000380: 955d 13be 35e0 3b3e 3ae3 6b3e a7e6 3f3e
00000390: d10b 233e d5b9 ec3c 7b29 a93d b61f 043e
000003a0: 1372 a03a c3ae 3e3e 2996 a3bd 3f09 a13c
000003b0: a2cc 44be 5fc4 b6bd 3136 05be 66ec 293e
000003c0: fa13 133e d6bf 96bd f4b8 113d ddbd 17be
000003d0: 513a 1ebe 4629 7c3d 2d31 2a3d 5e46 6dbe
000003e0: 762b a03d 75e0 aebd f955 bcbd 4157 68bc
000003f0: ec94 bfbd b6fe 40be ae18 3a3e befa 833d

sequential_11/dense_45/BiasAdd/ReadVariableOp:0 f4 [64]
-0.010938523 -0.019972488 0.0004227819 -0.018136602 0.033372622 0.004962396 0.037281033 0.041505538
-0.014516556 0.046202503 0.021400513 0.016624767 -0.016005736 -0.036829 0.0062710866 0.014273815
-0.01239686 0.014904871 -0.024255782 -0.033596266 -0.029768351 0.0153184645 -0.00020350103 0.023388375
-0.023064893 0.034162797 -0.0014001662 0.03410446 -0.004443622 0.039591983 -0.00057025056 -0.016605657
0.02765872 -0.020688621 0.017798522 -0.0021813298 0.0012369478 -0.010203308 -0.024590097 0.014172237
-0.016124314 0.0005842291 0.013341969 -0.015639579 -0.05517252 0.01313635 -0.010536833 0.050857164
0.016092647 -0.0065072393 0.005110156 -0.011818536 -0.032748967 -0.03409693 0.0053986153 -0.003880291
-0.0010039607 0.0665218 0.0065061552 -4.996924e-06 0.012972506 -0.009004123 -0.024424564 -0.038281273
00000000: 7e37 33bc 589d a3bc d3a8 dd39 3693 94bc
00000010: bbb1 083d 989b a23b ffb3 183d b601 2a3d
00000020: d9d6 6dbc d63e 3d3d 2150 af3c aa30 883c
00000030: 761e 83bc 01da 16bd b07d cd3b b8dc 693c
00000040: 331c 4bbc 8f33 743c 10b4 c6bc 3d9c 09bd
00000050: c2dc f3bc 4cfa 7a3c e462 55b9 fa98 bf3c
00000060: 96f2 bcbc 4aee 0b3d c885 b7ba 1eb1 0b3d
00000070: ce9b 91bb 342b 223d de7c 15ba 9608 88bc
00000080: 8a94 e23c 2f7b a9bc 35ce 913c a4f4 0ebb
00000090: 1521 a23a c72b 27bc 2c71 c9bc ac32 683c
000000a0: 2317 84bc f426 193a 4698 5a3c 931e 80bc
000000b0: 95fc 61bd d839 573c aea2 2cbc 9a4f 503d
000000c0: bad4 833c ae3a d5bb 1873 a73b 88a2 41bc
000000d0: c823 06bd 39a9 0bbd dee6 b03b 7b4c 7ebb
000000e0: 5597 83ba 953c 883d 9631 d53b 40ab a7b6
000000f0: a28a 543c 0786 13bc 0616 c8bc d3cc 1cbd

sequential_11/dense_44/MatMul/ReadVariableOp:0 f4 [11, 64]
-0.030618599 -0.06173087 0.14381129 -0.19611241 -0.071833566 -0.20782693 0.0722445 0.31839037
-0.0041884864 -0.016339 0.18150245 0.00435215 0.04664704 -0.021128299 -0.2225535 0.08095436
0.04791283 0.27424964 -0.12580076 -0.21436282 0.14527541 0.15372044 0.15672614 0.22052477
0.070731185 0.27496597 -0.101307295 -0.059112668 -0.004143011 0.15580365 0.22821748 -0.04341974
-0.14430296 -0.06141009 -0.33636165 0.1430275 0.19767249 0.21024475 0.14859307 0.18254802
0.16526774 -0.19910313 0.14898251 0.18074335 0.13303769 -0.1640158 0.23189722 0.24276672
-0.16484374 0.062405806 0.18702842 0.1285317 -0.18856788 0.19257964 -0.24640231 0.17858008
0.025533317 -0.23479334 -0.15919231 0.25793135 -0.12621777 0.07488238 0.22616558 0.16951367
-0.13142174 0.09283672 0.07054703 -0.21549991 0.20401008 0.23742975 0.017262127 0.26030055
0.031356115 -0.072978534 -0.029400317 -0.11604396 -0.35444945 -0.06307822 0.06371536 0.14120774
-0.011290577 -0.02734789 0.19174796 -0.17272678 -0.3692044 -0.11415055 -0.1564454 -0.3256253
0.26230612 0.19335108 -0.4030868 -0.032364473 0.13620664 -0.25538668 0.013562785 0.03190958
-0.052414667 0.07338192 0.032736372 -0.0617296 0.26262262 -0.19064236 -0.22550341 0.11750405
0.40735057 -0.14683795 0.015788877 -0.12502018 -0.08295752 0.06829866 0.1183436 0.22139224
0.045179237 0.0539303 0.13019477 0.3436048 -0.16523054 -0.29539886 -0.11097547 0.23855263
-0.28246757 0.080644496 0.22049764 -0.18482123 0.06086874 0.05072855 -0.18975878 -0.019643737
-0.061985023 -0.105980776 0.024100788 0.043086164 0.004964961 -0.12757021 0.046656262 0.0625201
-0.11104736 0.09206891 -0.08720811 0.23551503 -0.1074314 -0.19901612 -0.12993783 -0.24387415
-0.17763405 -0.17951916 0.14443608 0.009503327 0.12920928 -0.01182358 0.03731485 0.0908036
0.16312063 -0.11639359 -0.1681045 -0.25332472 -0.22079544 -0.07316741 -0.061653297 -0.2647214
-0.14407533 -0.116566226 -0.23570205 -0.039409596 0.13948944 0.14941509 -0.19394228 -0.18351258
-0.2419203 -0.007504427 0.08088605 -0.056553636 0.0071937083 0.23885678 0.051349822 -0.17182261
-0.18187448 0.13551202 0.07713199 -0.16486128 -0.14459495 -0.12425762 0.07885906 0.11078178
-0.18512648 -0.047633078 0.24131127 0.24968989 0.08693491 0.16119473 -0.07000965 0.18717515
0.19699435 0.24935375 -0.0869324 -0.26042128 -0.03635015 -0.132542 -0.063329935 -0.20785989
-0.053417318 0.34117985 -0.25787437 -0.2391978 0.08539228 0.17009522 -0.18451373 -0.22628276
-0.28864545 -0.025284855 0.08832725 0.1331493 0.17903413 0.03744283 0.15083598 0.078778245
-0.27596766 -0.23343155 0.22551815 -0.17117843 -0.21339701 -0.16687237 0.21530513 0.16025381
0.109008275 -0.15235372 -0.21353583 0.0909358 0.027567016 -0.13975926 0.096632354 0.23895791
0.08174246 -0.0060351067 0.3928589 0.23339587 0.26345414 -0.17550129 -0.23219623 -0.06680185
0.08063555 -0.16266721 0.17627595 0.23882914 -0.19908246 0.0266914 -0.085180454 0.060336873
-0.24584967 -0.27752414 -0.14834724 -0.019262541 0.33534962 -0.27564836 -0.18920495 -0.18788117
00000000: dbd3 fabc 82d9 7cbd 4443 133e b1d1 48be
00000010: 7a1d 93bd 95d0 54be edf4 933d 1004 a33e
00000020: 923f 89bb 5ed9 85bc c7db 393e 7b9c 8e3b
00000030: f710 3f3d 4115 adbc 11e5 63be 66cb a53d
00000040: 3e40 443d 736a 8c3e ead1 00be ed81 5bbe
00000050: 14c3 143e e468 1d3e d17c 203e 3fd1 613e
00000060: 83db 903d 57c8 8c3e 337a cfbd 2020 72bd
00000070: 18c2 87bb fe8a 1f3e d8b1 693e e6d8 31bd
00000080: 28c4 13be 2689 7bbd 9837 acbe cd75 123e
00000090: a86a 4a3e 664a 573e c828 183e deed 3a3e
000000a0: f23b 293e b1e1 4bbe df8e 183e c914 393e
000000b0: 083b 083e c2f3 27be 7776 6d3e d797 783e
000000c0: cccc 28be 3b9d 7f3d 6184 3f3e d09d 033e
000000d0: f017 41be 9933 453e e350 7cbe b2dd 363e
000000e0: 3f2b d13c aa6d 70be 4f03 23be 940f 843e
000000f0: 3b3f 01be ef5b 993d f397 673e fe94 2d3e
00000100: 6c93 06be 2e21 be3d f67a 903d 02ac 5cbe
00000110: 05e8 503e c920 733e 4e69 8d3c 1d46 853e
00000120: 456f 003d c575 95bd efd8 f0bc 75a8 edbd
00000130: 667a b5be 272f 81bd 337d 823d c398 103e
00000140: 1dfc 38bc af08 e0bc 9459 443e 4adf 30be
00000150: 5c08 bdbe c3c7 e9bd 3933 20be 5cb8 a6be
00000160: fd4c 863e d3fd 453e 6561 cebe 9c90 04bd
00000170: c179 0b3e 0bc2 82be 7236 5e3c 9fb3 023d
00000180: c3b0 56bd 4349 963d 9316 063d 2dd8 7cbd
00000190: 7976 863e c037 43be 5eea 66be f7a5 f03d
000001a0: 4190 d03e b05c 16be ad57 813c 4a05 00be
000001b0: a2e5 a9bd 2be0 8b3d 215e f23d a6b4 623e
000001c0: dd0d 393d 05e6 5c3d c751 053e f8ec af3e
000001d0: 3232 29be 853e 97be 1b47 e3bd 2447 743e
000001e0: 979f 90be f128 a53d 22ca 613e c741 3dbe
000001f0: 8051 793d bdc8 4f3d 2050 42be e7eb a0bc
00000200: 02e4 7dbd 730c d9bd 046f c53c 1e7b 303d
00000210: 1db1 a23b c4a1 02be a31a 3f3d 8a0a 803d
00000220: cc6c e3bd a08e bc3d 2a9a b2bd da2a 713e
00000230: fe04 dcbd e2ca 4bbe 6c0e 05be 25ba 79be
00000240: b3e5 35be dfd3 37be 0de7 133e d8b3 1b3c
00000250: 704f 043e b0b7 41bc 75d7 183d 3df7 b93d
00000260: 1809 273e c35f eebd 9623 2cbe c7b3 81be
00000270: 3318 62be ccd8 95bd 2b88 7cbd 9089 87be
00000280: 7c88 13be 46ba eebd e15b 71be f56b 21bd
00000290: 52d6 0e3e 4500 193e ce98 46be b9ea 3bbe
000002a0: f5b9 77be b2e7 f5bb 96a7 a53d c9a4 67bd
000002b0: 33b9 eb3b df96 743e 3154 523d 44f2 2fbe
000002c0: 4e3d 3abe aac3 0a3e 60f7 9d3d 65d1 28be
000002d0: b310 14be c77a febd dc80 a13d 8fe1 e23d
000002e0: cc91 3dbe e71a 43bd 4d1a 773e b5ae 7f3e
000002f0: ee0a b23d 3b10 253e 3861 8fbd d8aa 3f3e
00000300: e3b8 493e 9756 7f3e 9d09 b2bd f055 85be
00000310: e5e3 14bd 17b9 07be 20b3 81bd 39d9 54be
00000320: 1ecc 5abd 20af ae3e 1c08 84be 45f0 74be
00000330: 26e2 ae3d 712d 2e3e 2bf1 3cbe abb6 67be
00000340: 56c9 93be 2f22 cfbc ebe4 b43d 4a58 083e
00000350: b954 373e a75d 193d bf74 1a3e 7d56 a13d
00000360: a24b 8dbe ae08 6fbe 3bee 663e 6649 2fbe
00000370: bf84 5abe 97e0 2abe f378 5c3e 9319 243e
00000380: bb3f df3d 9d02 1cbe 23a9 5abe 8c3c ba3d
00000390: 39d4 e13c 0d1d 0fbe 2fe7 c53d 62b1 743e
000003a0: 9768 a73d 25c2 c5bb cd24 c93e 54ff 6e3e
000003b0: 76e3 863e 9cb6 33be d9c4 6dbe 69cf 88bd
000003c0: 4024 a53d 3c92 26be af81 343e a08f 743e
000003d0: 46dc 4bbe eca7 da3c 1773 aebd cc23 773d
000003e0: 04c0 7bbe a517 8ebe 57e8 17be 7acc 9dbc
000003f0: f2b2 ab3e c821 8dbe f1be 41be ec63 40be

sequential_11/dense_44/BiasAdd/ReadVariableOp:0 f4 [64]
0.005420616 0.025504278 -0.04155478 0.037843898 0.014015045 0.020289281 -0.082270525 -0.053927306
-0.02888477 0.008542735 0.03539731 -0.025789384 -0.01819217 0.011554569 0.05608131 -0.016737897
-0.045789506 0.0029756145 -0.014548667 -0.043152664 0.04047413 -0.019003214 -0.008835054 -0.034031905
0.028373616 0.033555716 0.036470976 -0.039127316 0.020257654 0.021870872 0.002080192 0.026189592
-0.07016275 0.003669695 0.015474148 -0.033745542 -0.030229047 -0.029203417 -0.034210313 -0.071150444
0.044595033 -0.022471072 -0.032131575 0.010734757 0.0005464441 0.04437968 -0.017962769 0.030937895
-0.043324396 -0.04072471 -0.032583214 0.010180736 0.019810325 -5.7027704e-05 0.05287345 -0.0003937312
-0.035931565 0.0026815364 -0.01496911 0.030381385 0.040574264 -0.0835489 -0.053010844 -0.029281592
00000000: 6c9f b13b 59ee d03c 5835 2abd 3402 1b3d
00000010: 5c9f 653c b535 a63c 737d a8bd e1e2 5cbd
00000020: c19f ecbc d4f6 0b3c c5fc 103d 4244 d3bc
00000030: bf07 95bc 604f 3d3c 84b5 653d ea1d 89bc
00000040: c78d 3bbd 8702 433b 885d 6ebc d9c0 30bd
00000050: 34c8 253d a1ac 9bbc e7c0 10bc 0a65 0bbd
00000060: c96f e83c b871 093d 9762 153d f743 20bd
00000070: 61f3 a53c 8b2a b33c d553 083b 8e8b d63c
00000080: 7db1 8fbd 447f 703b 4887 7d3c c438 0abd
00000090: e8a2 f7bc 013c efbc 1d20 0cbd 53b7 91bd
000000a0: 48a9 363d 4115 b8bc 669c 03bd d6e0 2f3c
000000b0: 3e3f 0f3a 78c7 353d a826 93bc 7871 fd3c
000000c0: ec74 31bd f4ce 26bd fa75 05bd 1acd 263c
000000d0: 4349 a23c 0831 6fb8 d591 583d b56d ceb9
000000e0: fa2c 13bd b7bc 2f3b ff40 75bc 62e2 f83c
000000f0: 3331 263d b01b abbd e621 59bd f3df efbc

sequential_11/customer_data/batchnorm/sub:0 f4 [11]
-0.66444963 -2.7245555 -2.6658595 -2.117168 -1.2451025 -1.3402098 -3.5817506 -31.517418
-0.29841882 -4.758057 -1.8357295
00000000: 5f19 2abf 1e5f 2ec0 719d 2ac0 ae7f 07c0
00000010: 855f 9fbf ff8b abbf 673b 65c0 ac23 fcc1
00000020: 5aca 98be 0142 98c0 2ff9 eabf

sequential_11/customer_data/batchnorm/mul:0 f4 [11]
1.2709677 1.2568664e-05 1.0992708 2.668043 2.1509469 2.1981654 3.829987 31.531715
3.3066845 0.00032355246 0.0007211759
00000000: 12af a23f 00de 5237 e8b4 8c3f 37c1 2a40
00000010: 1da9 0940 beae 0c40 821e 7540 f440 fc41
00000020: b8a0 5340 7aa2 a939 4c0d 3d3a
